embedding_max_model_weights.npy (npy, 928 bytes, 1 tensors)

array f8 [100, 1]
0	0x3f553b5112f5d6af	0.0012958804835227313
1	0x3f7cbc91b3eada8d	0.007015771056720366
2	0xbf64ba2cb2f18709	-0.0025301812197974266
3	0x3f8bace45e5b2104	0.013513359193340076
4	0x3f7b38a61dc1beb0	0.006645821467926957
5	0xbf575f12398798fe	-0.0014264753318627417
6	0x3f86f5870632ff1b	0.011210493923840261
7	0x3f8a488faf8dbbc3	0.012833712143871417
8	0xbf39273c53d51848	-0.0003838083537924847
9	0x3f804d279884d49f	0.007959660856253157
10	0x3f880e315e8eb153	0.011745820711290966
11	0xbf9c504da53d2940	-0.02765008278883241
12	0xbf3ec4ea6f2f2bee	-0.00046950076574309065
13	0x3f8207d596919151	0.008804005296220526
14	0x3f7050cc362577cb	0.0039833046924666144
15	0xbeff1d0daa35e1c0	-2.967213607749249e-05
16	0xbf713ab1d6d1b8f4	-0.0042063662377655915
17	0x3f7dfe44a55ef8e6	0.0073225671275720435
18	0x3f74bc220609eb1b	0.005062230019229809
19	0x3f76fdf6e3b5de7e	0.005613293087087022
20	0x3f7096fa3c172b8d	0.0040502333444675355
21	0x3f8c135294a26219	0.013708729897460125
22	0x3f871fb86dd1fa36	0.011290970660636206
23	0x3f6971d84eb182d2	0.0031060433152990475
24	0x3f4cc793c7ec4e57	0.0008782836519877862
25	0x3f830fb617b4dca1	0.009307310675110538
26	0xbf4742b37de4014d	-0.0007098556923495286
27	0xbeda55763f8378a0	-6.278475659564142e-06
28	0xbf903e24147ce725	-0.01586204886482458
29	0x3f850e892c5f5a83	0.010281631151810139
30	0x3f9acba558952dd5	0.026167472392712405
31	0xbf9422adffc65bea	-0.019663542495972942
32	0xbf6b490d38bb7d31	-0.0033307321772181532
33	0xbf95165ea5091092	-0.020593146155321103
34	0xbf8476f73f258293	-0.009992534269885034
35	0xbf86497f4939b583	-0.010882372305071502
36	0xbf878b3a65fea0d7	-0.01149602531207032
37	0xbf931f2644834667	-0.018673513347329165
38	0x3f680a754ccbcaa5	0.002934674359829375
39	0xbf9057ffc69a1c92	-0.01596069001837159
40	0xbf920a63967af240	-0.017617755946718328
41	0xbf877bf58915f9a5	-0.011466902013805244
42	0x3f82e87317cd2676	0.009232424892292129
43	0xbf656a81e88a11f1	-0.0026142632744401363
44	0xbf82ba5feacbb070	-0.009144543984312942
45	0x3f90a8a79e42ab99	0.01626836684651387
46	0x3f824509cde838a7	0.008920742603575183
47	0x3f87ed67a759a99a	0.011683282656311179
48	0xbf7db55c90760c10	-0.0072530380051629845
49	0x3f8f1aba46e75a2f	0.015187697686013994
50	0x3f9709e01f1f1ec4	0.022498609447011444
51	0xbf556b8f4fe147c0	-0.0013073825389437882
52	0xbf828bd38cdf373a	-0.009055760132379843
53	0x3f7be7c613812b5d	0.006812833533397758
54	0x3f657ec8ba9860f5	0.0026239319311224204
55	0x3f704a92c1828b3b	0.003977368607737837
56	0x3f7361bfb92debc1	0.0047318925088530315
57	0x3f802290fa95d390	0.007878430030112488
58	0x3f953965d6826078	0.0207267677475049
59	0xbf90a0e06f5b83ab	-0.016238695904465732
60	0xbf77d089a5bd34ef	-0.005814111409404562
61	0x3f6a33c665cccd91	0.0031985163645004773
62	0xbf3304c938a17966	-0.00029020226123135093
63	0x3f7b2548650701f4	0.006627352515750296
64	0x3f839db5ac70818a	0.009578151059088897
65	0xbf5f2d78de55d002	-0.0019029312473692887
66	0x3f72b8265db2c0cd	0.004570150248739147
67	0xbf941b8a0245aa34	-0.019636303318671902
68	0xbf8c31b17d8e38a8	-0.013766657489920966
69	0xbf773f4cb528d36d	-0.005675601615213616
70	0xbf8148325e1e5202	-0.008438485619799433
71	0xbf9b4d6fc3b44f91	-0.02666258460983745
72	0xbf73396b650d63b0	-0.004693431387601629
73	0xbf7b12ec8c3d7881	-0.006609844221968087
74	0xbf81baa729ff80e7	-0.008656793564967248
75	0x3f793819c527dca8	0.0061570173879694
76	0xbf89f8bf63d03cce	-0.012681479676784593
77	0xbf9321419578ca32	-0.018681549785649128
78	0xbf82518f0305fc9c	-0.00894462326027528
79	0xbf86b9964041975a	-0.011096166454261858
80	0x3f8c528533ee43e1	0.01382927002649298
81	0xbf7874bdac568f64	-0.005970707808419327
82	0x3f75b5f7780b819d	0.005300490069857136
83	0xbf4f41d4dd40f23a	-0.0009538926483468387
84	0x3f3bfefe988e6426	0.00042718616219300715
85	0x3f6bf9a2d5d806fe	0.003414934194325591
86	0xbf8665cf925ac5dc	-0.010936376241576555
87	0xbf83236966bf7b32	-0.009344886253470717
88	0xbf73cc71b8d00093	-0.004833645082726562
89	0x3f94282fab3463e1	0.01968454821062327
90	0x3f568bf8d195319b	0.0013761453504513635
91	0x3f771b566fabd16e	0.005641305581537954
92	0xbf4542fbddefa39b	-0.0006488542384178621
93	0x3f891bf3f9443201	0.012260347408777685
94	0xbf78b54614f06390	-0.006032251126293256
95	0x3f87dd9f0d1b567d	0.011653177821624222
96	0xbf8095dc3cd4bde3	-0.00809833584443615
97	0x3ef38c9be2443f2c	1.8643621062130303e-05
98	0xbf50afabce71c2c8	-0.001018445758543306
99	0x3f7198c43b02830a	0.00429608013669803
