embedding_tfidf_model_weights.npy (npy, 928 bytes, 1 tensors)

array f8 [100, 1]
0	0x3f962ae06e743b2c	0.021647936574534274
1	0x3f89acbaf7dd0564	0.012536488236608086
2	0xbf7f1610e241143b	-0.007589403107037869
3	0x3f84d316b376f6f8	0.010168244697406945
4	0x3f435f90abcb8481	0.000591226234600964
5	0x3f433c54240d8131	0.0005870257228757556
6	0xbf8c645d1f3eb6bd	-0.013863303676625244
7	0x3f9141c3ae15703e	0.016852433681705963
8	0x3f7ebc68f1f3700e	0.007503900472524817
9	0xbed5d57a2b026720	-5.205606314140511e-06
10	0xbf8fbf16c41850a9	-0.015501191958755394
11	0xbf94aca6d85371d1	-0.02018986411427354
12	0xbf76324d24ccadc0	-0.00541906484867688
13	0x3f9242b338949bed	0.017832565620803754
14	0x3f7f3485ecd680f2	0.007618449349507938
15	0xbf72bab43a786341	-0.004572586075959618
16	0xbf979cfda6a06e2c	-0.023059809966168895
17	0xbf6a9b9897428de3	-0.0032480221071453526
18	0xbf4a88e9fa881e20	-0.0008097784494233741
19	0x3f80b634b55f7241	0.008160030160007216
20	0xbf51315e81ba39fe	-0.0010493681828936947
21	0x3f81fc3311b135a5	0.008781813599990704
22	0x3f85206a92646f54	0.010315735428370644
23	0x3f97af2836f70150	0.023129108767308282
24	0xbf8d9736e9e4b2fa	-0.014448575032099498
25	0xbf74dea6825d6066	-0.005095148493488555
26	0xbf94a41782602da4	-0.020157210667134287
27	0x3f8b4b7c75f45730	0.013327572202381427
28	0x3f5e70af2900efce	0.0018579206989803756
29	0x3f7e7ec147e6c728	0.00744510174119898
30	0x3f9c976884336d2f	0.027921326702977808
31	0xbf9a027f76278b59	-0.025400153719498195
32	0x3f69c58c246cddf1	0.003145955768015567
33	0xbf9770387ed99559	-0.022889025442414866
34	0xbf5f6ddc474facf8	-0.0019182826192672402
35	0x3f81886838ef4691	0.008560957181461578
36	0xbf9a7bf40cb47775	-0.025863469386528466
37	0xbf886b555d786a89	-0.01192347232340764
38	0xbf4d2507b9c7f41a	-0.0008894241069011849
39	0xbf8a4d0c01946318	-0.012842267797667214
40	0xbf9c3122304cbd53	-0.027531179616912493
41	0xbf8f7c408ac61fff	-0.01537371085647976
42	0x3f89db941ee4c1fb	0.01262584418563594
43	0x3f486e9b92426757	0.000745607340394398
44	0xbf8013637b18e560	-0.007849480814104026
45	0x3f8b47ab6bbe465b	0.013320292687953364
46	0xbf7ce74280804c69	-0.0070564840061876155
47	0x3f8826a7b7cd374b	0.011792478844337892
48	0x3f82cc17e9effc38	0.009178339792923138
49	0x3f9cdb121f6f77f4	0.02817943875185587
50	0x3fa2952836893941	0.03629422822688123
51	0x3f87f5c6e96eceae	0.011699251173787086
52	0x3f68b1313c9bccb6	0.0030141793875998147
53	0xbf761b7527997cc4	-0.005397279391757329
54	0x3f7643bccc4d8d74	0.005435693256774388
55	0x3f9972fb6ee31317	0.024852684634214386
56	0x3f6bb77dbee47ba8	0.003383393857020651
57	0x3f994bd22f359132	0.02470329678671241
58	0xbf8ca2b091ffb144	-0.013982181029824965
59	0x3f7a90b04f8d24f6	0.006485642160279461
60	0xbf9380e7039200a4	-0.019046411126055887
61	0x3f8dcdbd3859a71a	0.014552572519466223
62	0xbf84139b7b99ce49	-0.009803023061272802
63	0x3f915339e2960bbc	0.016919044928282764
64	0x3f7556ad9a792934	0.005209615839314719
65	0x3f49b0b404fdc71a	0.0007840041161968098
66	0x3f7e3dd217ce4327	0.007383175540682164
67	0xbf92ae12d66dc363	-0.018242163026516944
68	0xbf73429a7042be06	-0.0047021897081971405
69	0x3f8b1aa21aa996a4	0.013234392584489392
70	0xbf797665b2ff7cca	-0.006216428053419773
71	0x3f883770eae9c802	0.011824495476705724
72	0x3f83d6454307c19e	0.009686032398321495
73	0x3f520fec9405096a	0.001102429421806573
74	0x3f4398bc2b01b1fa	0.0005980414189373222
75	0x3f5e4fab7527a1e1	0.0018500494376160125
76	0xbf8c7524379454c4	-0.013895304628514522
77	0xbf9061d8c78e85bf	-0.01599825590131387
78	0xbf977e4cff5a42cd	-0.022942736707195977
79	0xbf90ebde88fedc3a	-0.016524769889397307
80	0x3f99b57cb8370cfa	0.025106381171792848
81	0xbf8558966f868bcf	-0.010422873762598343
82	0x3f8725bb4bdc24d8	0.011302436115800438
83	0x3f8c1e1218e25abd	0.013729230293660572
84	0x3f5d3b77e8619577	0.0017841979002012045
85	0x3f83121f3af9d2fd	0.009311908709813016
86	0xbf6bfbe6ddd77a0f	-0.003416014586704159
87	0xbf46f2c905868649	-0.0007003289747908394
88	0x3f7ac62758312fb4	0.006536630334334537
89	0x3f83732526bbcd27	0.009496965641551626
90	0xbf88da90e5614967	-0.012135631561396477
91	0x3f585e8f6458ff2b	0.0014873886406263175
92	0x3f8a25f75502f1a1	0.01276772716698177
93	0xbf5a71bd9692219c	-0.0016140319296785504
94	0xbf900ec0c701c72a	-0.015681278368396757
95	0x3f90841e0a52a1fe	0.016128987674763444
96	0x3f6571bd410af5cd	0.002617711674558909
97	0xbf839d1a10d86805	-0.00957699169071092
98	0x3f864ac8626399a7	0.010884824278446127
99	0x3f83a655df85385f	0.009594603427697189
