embedding_model_weights.npy (npy, 928 bytes, 1 tensors)

array f8 [100, 1]
000000 e8 27 aa d4 aa 92 9b 3f 17 be 05 a5 94 ea 83 3f
       0.026926678876897286 0.009724770818791346
000010 22 dd 4a 95 6f 52 81 bf 87 cc 7d 9e 8e fa 85 3f
       -0.00845801519731865 0.010731806003354783
000020 cc 70 16 c7 a4 f9 5b 3f 2c c4 40 db aa c0 7a 3f
       0.001707468906125209 0.006531398208651711
000030 87 22 a9 ce 9d b1 8f bf 1e b6 b5 36 9e f9 97 3f
       -0.015475495213779012 0.02341315468713933
000040 0a 97 aa a6 81 79 79 3f 4e 3e 7a a2 b7 90 6e 3f
       0.006219393205048504 0.0037311159720230585
000050 96 e8 53 64 c7 4b 91 bf 48 fb 2d aa 88 78 99 bf
       -0.016890635965844135 -0.024873862635554717
000060 d2 c7 72 8b e0 11 75 3f 52 6d 27 86 4d 7e 95 3f
       0.005144002082646497 0.020989619553671908
000070 ba d5 14 10 49 24 87 3f dd 0f 09 14 d5 e6 7b bf
       0.011299677661194763 -0.006811935746160428
000080 02 c6 ec db 4d 33 9b bf 1c 49 05 50 82 74 4c 3f
       -0.026562897251272595 0.0008683811466119492
000090 d5 94 c7 85 96 af 15 3f e9 58 fa c4 8c b8 86 3f
       8.272510735414806e-05 0.011094188462533032
0000a0 c5 5c 20 45 21 c1 64 bf 25 a1 29 47 ac 27 82 3f
       -0.0025334977917839973 0.008864732667647044
0000b0 2f 16 f0 02 34 96 8b 3f 29 fa 61 1f 03 21 9f 3f
       0.013470083560615269 0.030399369039964128
0000c0 28 f2 bd c7 5e 21 8c bf ca b9 9f db 62 03 73 bf
       -0.013735523672715536 -0.00464190117234726
0000d0 ae f4 57 bb 0d fe 9d bf 79 33 27 40 7f 1b 91 3f
       -0.02928945022539569 0.016706455507847082
0000e0 da cc ed 84 d7 0e 43 3f fc 6c 69 63 18 25 6f 3f
       0.0005816032734017554 0.00380186808915328
0000f0 c6 d8 a6 c3 e6 08 9e 3f c9 0e e3 f3 63 41 9b bf
       0.029330831233630027 -0.026616632233312374
000100 1e f4 94 e9 b5 93 16 3f 06 3a 1f e5 2f 6b 96 bf
       8.612439923623468e-05 -0.021893261298652454
000110 fe 36 ce 65 1f 7b 43 3f c3 6f 5a de 44 88 8f 3f
       0.0005945113476728268 0.0153966312748749
000120 00 a9 ff ac 23 4d a1 bf b6 d7 c8 9a 73 0b 8c bf
       -0.03379165159988595 -0.013693717156552637
000130 6a 55 4b 2a bd 22 66 3f 40 13 4c 42 7e 1b 84 bf
       0.0027021116860434418 -0.009818064115742708
000140 f6 fb f0 60 76 07 9f bf 0c 8b 3c 39 de e3 91 bf
       -0.030301904360609165 -0.0174708101686845
000150 80 02 74 f6 7b 20 90 3f 05 62 69 f3 77 ed 55 bf
       0.015748917500788995 -0.0013383551974098806
000160 a8 20 aa 5c 14 37 7f bf 05 06 04 2f c7 99 92 3f
       -0.007620887316655146 0.018164741749393105
000170 e8 5f 64 18 c0 34 84 bf f7 04 c3 58 bd 71 90 3f
       -0.009866238350284065 0.0160588822770977
000180 f8 d7 55 56 4e c9 78 3f 1e f5 d3 f8 3f c0 a0 3f
       0.006051355366585291 0.032716750263697345
000190 b5 55 be 73 6b 7a a5 3f dd 73 41 84 01 4c 8e 3f
       0.041949613455624236 0.014793407295821065
0001a0 a2 f9 22 74 e6 2d 73 3f 5a 81 ad 34 60 88 78 bf
       0.0046824457260172 -0.0059894331014621275
0001b0 d1 95 3a 97 85 0d 81 3f 96 66 7c f9 ae 6e 9c 3f
       0.00832657211078472 0.027765974023259497
0001c0 bb 5c 7c 46 09 bc 5b 3f 94 ef cf b8 89 9d a0 3f
       0.0016927805499500753 0.03245191937455086
0001d0 2e 95 4d 75 1d 67 98 bf 04 f7 9b 3c 73 9b 80 3f
       -0.023830852779970595 0.008108997618815568
0001e0 73 3c b4 c3 bf 72 94 bf 3e eb ad 2d 6c 91 8c 3f
       -0.019968983001544104 0.013949246543906942
0001f0 09 a3 19 58 02 48 8b bf 96 50 c0 e1 be 86 8e 3f
       -0.013320940316775347 0.014905444397335803
000200 d6 04 78 74 04 8f 7c 3f 55 3a 02 5f dc 6e 34 3f
       0.006972329523251738 0.00031178360132680844
000210 db 79 27 cc 9f 07 65 3f a0 bf a9 a1 a8 5e 92 bf
       0.0025671120686034782 -0.017939219348079072
000220 4a c2 91 89 ff c8 75 bf 1c 2e b1 15 67 2b 8b 3f
       -0.005318639939205181 0.013266377782335907
000230 1b bb 57 5a e8 c5 34 bf 2d 33 41 43 9a 5f 85 3f
       -0.0003169719951462855 0.010436253716898125
000240 05 ec 94 75 2c 83 81 3f 24 be 09 6a 84 3b 48 3f
       0.008550975168523331 0.0007395168832555238
000250 d9 ea 14 36 d1 74 77 3f a1 95 5b a2 4b 29 31 bf
       0.005726639968367941 -0.0002618608144600802
000260 91 fe c8 e8 01 01 88 bf 73 40 f3 df d6 bd 90 bf
       -0.011720671574152493 -0.016349179667316038
000270 38 3e f8 27 83 0d 9a bf 62 02 72 27 2f a8 91 bf
       -0.025442170443112228 -0.017243134291222602
000280 ad a2 2d 71 c4 17 9d 3f 23 cb f6 91 9b 34 63 bf
       0.028410977752545353 -0.0023444212417528406
000290 b7 74 b9 08 13 37 8a 3f f1 59 e3 9b 2f 12 71 3f
       0.01280035848975057 0.004167734119809628
0002a0 81 7d 4c 01 66 6b 7a 3f 56 a6 ab ba 89 b3 84 3f
       0.006450079400365794 0.010108066567641998
0002b0 ab e0 d7 ed a3 82 76 bf ab 0a 32 67 8d 62 64 bf
       -0.005495682094526592 -0.002488399675315852
0002c0 a0 ef e7 9a 56 0a 86 3f 4b 66 0a 50 d9 41 87 3f
       0.010761906244617425 0.011356065516611077
0002d0 d8 61 ba 74 30 68 86 bf 2e 80 23 37 67 07 28 3f
       -0.010940912782914688 0.00018332610085902825
0002e0 59 99 81 da 0e cc 87 3f 1f 6d ac 49 72 4a 61 bf
       0.011619678538590849 -0.0021106941397995983
0002f0 dc fd 8d 65 4a 92 92 bf 43 e9 74 f0 b3 f6 92 3f
       -0.018136179397968508 0.018519221831618592
000300 b8 78 a6 e3 32 c8 80 3f ce 94 84 c1 24 0f 8b bf
       0.008194348881087485 -0.0132124778325057
000310 3b d8 a7 3e d6 ee 92 3f 9b 53 18 a2 83 a1 93 3f
       0.018489215444752665 0.019170815247054312
